…
[2024-05-28 10:36:26] Running on device cuda
[2024-05-28 10:36:38] AdamW (
[2024-05-28 10:36:38] Parameter Group 0
[2024-05-28 10:36:38]     amsgrad: False
[2024-05-28 10:36:38]     betas: (0.9, 0.999)
[2024-05-28 10:36:38]     capturable: False
[2024-05-28 10:36:38]     differentiable: False
[2024-05-28 10:36:38]     eps: 1e-08
[2024-05-28 10:36:38]     foreach: None
[2024-05-28 10:36:38]     fused: None
[2024-05-28 10:36:38]     lr: 0.001
[2024-05-28 10:36:38]     maximize: False
[2024-05-28 10:36:38]     weight_decay: 0.01
[2024-05-28 10:36:38] )
[2024-05-28 10:36:38] Crnn(
[2024-05-28 10:36:38]   (batch_norm): BatchNorm1d(64, eps=1e-05, momentum=0.1, affine=True, track_running_stats=True)
[2024-05-28 10:36:38]   (conv_block1): Sequential(
[2024-05-28 10:36:38]     (0): Conv2d(1, 16, kernel_size=(3, 3), stride=(1, 1), padding=(1, 1))
[2024-05-28 10:36:38]     (1): BatchNorm2d(16, eps=1e-05, momentum=0.1, affine=True, track_running_stats=True)
[2024-05-28 10:36:38]     (2): ReLU()
[2024-05-28 10:36:38]     (3): MaxPool2d(kernel_size=2, stride=2, padding=0, dilation=1, ceil_mode=False)
[2024-05-28 10:36:38]   )
[2024-05-28 10:36:38]   (conv_block2): Sequential(
[2024-05-28 10:36:38]     (0): Conv2d(16, 32, kernel_size=(3, 3), stride=(1, 1), padding=(1, 1))
[2024-05-28 10:36:38]     (1): BatchNorm2d(32, eps=1e-05, momentum=0.1, affine=True, track_running_stats=True)
[2024-05-28 10:36:38]     (2): ReLU()
[2024-05-28 10:36:38]     (3): MaxPool2d(kernel_size=2, stride=2, padding=0, dilation=1, ceil_mode=False)
[2024-05-28 10:36:38]   )
[2024-05-28 10:36:38]   (conv_block3): Sequential(
[2024-05-28 10:36:38]     (0): Conv2d(32, 64, kernel_size=(3, 3), stride=(1, 1), padding=(1, 1))
[2024-05-28 10:36:38]     (1): BatchNorm2d(64, eps=1e-05, momentum=0.1, affine=True, track_running_stats=True)
[2024-05-28 10:36:38]     (2): ReLU()
[2024-05-28 10:36:38]     (3): MaxPool2d(kernel_size=2, stride=2, padding=0, dilation=1, ceil_mode=False)
[2024-05-28 10:36:38]   )
[2024-05-28 10:36:38]   (conv_block4): Sequential(
[2024-05-28 10:36:38]     (0): Conv2d(64, 128, kernel_size=(3, 3), stride=(1, 1), padding=(1, 1))
[2024-05-28 10:36:38]     (1): BatchNorm2d(128, eps=1e-05, momentum=0.1, affine=True, track_running_stats=True)
[2024-05-28 10:36:38]     (2): ReLU()
[2024-05-28 10:36:38]     (3): MaxPool2d(kernel_size=2, stride=2, padding=0, dilation=1, ceil_mode=False)
[2024-05-28 10:36:38]   )
[2024-05-28 10:36:38]   (conv_block5): Sequential(
[2024-05-28 10:36:38]     (0): Conv2d(128, 128, kernel_size=(3, 3), stride=(1, 1), padding=(1, 1))
[2024-05-28 10:36:38]     (1): BatchNorm2d(128, eps=1e-05, momentum=0.1, affine=True, track_running_stats=True)
[2024-05-28 10:36:38]     (2): ReLU()
[2024-05-28 10:36:38]     (3): MaxPool2d(kernel_size=2, stride=2, padding=0, dilation=1, ceil_mode=False)
[2024-05-28 10:36:38]   )
[2024-05-28 10:36:38]   (biGRU): GRU(256, 128, batch_first=True, bidirectional=True)
[2024-05-28 10:36:38]   (fc): Linear(in_features=256, out_features=10, bias=True)
[2024-05-28 10:36:38] )
  0%|          | 0/23 [00:00<?, ?batch/s]  4%|▍         | 1/23 [00:04<01:35,  4.36s/batch] 13%|█▎        | 3/23 [00:04<00:23,  1.18s/batch] 17%|█▋        | 4/23 [00:05<00:20,  1.10s/batch] 22%|██▏       | 5/23 [00:06<00:17,  1.05batch/s] 26%|██▌       | 6/23 [00:06<00:14,  1.19batch/s] 30%|███       | 7/23 [00:07<00:11,  1
…
