…
[2024-05-29 06:13:07] Running on device cuda
[2024-05-29 06:13:09] AdamW (
[2024-05-29 06:13:09] Parameter Group 0
[2024-05-29 06:13:09]     amsgrad: False
[2024-05-29 06:13:09]     betas: (0.9, 0.999)
[2024-05-29 06:13:09]     capturable: False
[2024-05-29 06:13:09]     differentiable: False
[2024-05-29 06:13:09]     eps: 1e-08
[2024-05-29 06:13:09]     foreach: None
[2024-05-29 06:13:09]     fused: None
[2024-05-29 06:13:09]     lr: 0.001
[2024-05-29 06:13:09]     maximize: False
[2024-05-29 06:13:09]     weight_decay: 0.01
[2024-05-29 06:13:09] )
[2024-05-29 06:13:09] Crnn(
[2024-05-29 06:13:09]   (batch_norm): BatchNorm1d(64, eps=1e-05, momentum=0.1, affine=True, track_running_stats=True)
[2024-05-29 06:13:09]   (conv_block1): Sequential(
[2024-05-29 06:13:09]     (0): Conv2d(1, 16, kernel_size=(3, 3), stride=(1, 1), padding=(1, 1))
[2024-05-29 06:13:09]     (1): BatchNorm2d(16, eps=1e-05, momentum=0.1, affine=True, track_running_stats=True)
[2024-05-29 06:13:09]     (2): ReLU()
[2024-05-29 06:13:09]     (3): MaxPool2d(kernel_size=2, stride=2, padding=0, dilation=1, ceil_mode=False)
[2024-05-29 06:13:09]   )
[2024-05-29 06:13:09]   (conv_block2): Sequential(
[2024-05-29 06:13:09]     (0): Conv2d(16, 32, kernel_size=(3, 3), stride=(1, 1), padding=(1, 1))
[2024-05-29 06:13:09]     (1): BatchNorm2d(32, eps=1e-05, momentum=0.1, affine=True, track_running_stats=True)
[2024-05-29 06:13:09]     (2): ReLU()
[2024-05-29 06:13:09]     (3): MaxPool2d(kernel_size=2, stride=2, padding=0, dilation=1, ceil_mode=False)
[2024-05-29 06:13:09]   )
[2024-05-29 06:13:09]   (conv_block3): Sequential(
[2024-05-29 06:13:09]     (0): Conv2d(32, 64, kernel_size=(3, 3), stride=(1, 1), padding=(1, 1))
[2024-05-29 06:13:09]     (1): BatchNorm2d(64, eps=1e-05, momentum=0.1, affine=True, track_running_stats=True)
[2024-05-29 06:13:09]     (2): ReLU()
[2024-05-29 06:13:09]     (3): MaxPool2d(kernel_size=2, stride=2, padding=0, dilation=1, ceil_mode=False)
[2024-05-29 06:13:09]   )
[2024-05-29 06:13:09]   (conv_block4): Sequential(
[2024-05-29 06:13:09]     (0): Conv2d(64, 128, kernel_size=(3, 3), stride=(1, 1), padding=(1, 1))
[2024-05-29 06:13:09]     (1): BatchNorm2d(128, eps=1e-05, momentum=0.1, affine=True, track_running_stats=True)
[2024-05-29 06:13:09]     (2): ReLU()
[2024-05-29 06:13:09]     (3): MaxPool2d(kernel_size=2, stride=2, padding=0, dilation=1, ceil_mode=False)
[2024-05-29 06:13:09]   )
[2024-05-29 06:13:09]   (conv_block5): Sequential(
[2024-05-29 06:13:09]     (0): Conv2d(128, 128, kernel_size=(3, 3), stride=(1, 1), padding=(1, 1))
[2024-05-29 06:13:09]     (1): BatchNorm2d(128, eps=1e-05, momentum=0.1, affine=True, track_running_stats=True)
[2024-05-29 06:13:09]     (2): ReLU()
[2024-05-29 06:13:09]     (3): MaxPool2d(kernel_size=2, stride=2, padding=0, dilation=1, ceil_mode=False)
[2024-05-29 06:13:09]   )
[2024-05-29 06:13:09]   (biGRU): GRU(256, 128, batch_first=True, bidirectional=True)
[2024-05-29 06:13:09]   (fc): Linear(in_features=256, out_features=10, bias=True)
[2024-05-29 06:13:09] )
  0%|          | 0/23 [00:00<?, ?batch/s]  4%|▍         | 1/23 [00:04<01:31,  4.18s/batch] 13%|█▎        | 3/23 [00:04<00:26,  1.34s/batch] 17%|█▋        | 4/23 [00:05<00:21,  1.11s/batch] 22%|██▏       | 5/23 [00:06<00:16,  1.06batch/s] 26%|██▌       | 6/23 [00:06<00:13,  1.27batch/s] 30%|███       | 7/23 [00:06<00:10,  1
…
