…
[2024-06-08 22:04:23] Sequential()
[2024-06-08 22:04:25] AdamW (
[2024-06-08 22:04:25] Parameter Group 0
[2024-06-08 22:04:25]     amsgrad: False
[2024-06-08 22:04:25]     betas: (0.9, 0.999)
[2024-06-08 22:04:25]     capturable: False
[2024-06-08 22:04:25]     differentiable: False
[2024-06-08 22:04:25]     eps: 1e-08
[2024-06-08 22:04:25]     foreach: None
[2024-06-08 22:04:25]     fused: None
[2024-06-08 22:04:25]     lr: 0.001
[2024-06-08 22:04:25]     maximize: False
[2024-06-08 22:04:25]     weight_decay: 0.01
[2024-06-08 22:04:25] )
[2024-06-08 22:04:25] Crnn(
[2024-06-08 22:04:25]   (batch_norm): BatchNorm1d(64, eps=1e-05, momentum=0.1, affine=True, track_running_stats=True)
[2024-06-08 22:04:25]   (conv_block1): Sequential(
[2024-06-08 22:04:25]     (0): Conv2d(1, 16, kernel_size=(3, 3), stride=(1, 1), padding=(1, 1))
[2024-06-08 22:04:25]     (1): BatchNorm2d(16, eps=1e-05, momentum=0.1, affine=True, track_running_stats=True)
[2024-06-08 22:04:25]     (2): ReLU()
[2024-06-08 22:04:25]     (3): MaxPool2d(kernel_size=2, stride=2, padding=0, dilation=1, ceil_mode=False)
[2024-06-08 22:04:25]   )
[2024-06-08 22:04:25]   (conv_block2): Sequential(
[2024-06-08 22:04:25]     (0): Conv2d(16, 32, kernel_size=(3, 3), stride=(1, 1), padding=(1, 1))
[2024-06-08 22:04:25]     (1): BatchNorm2d(32, eps=1e-05, momentum=0.1, affine=True, track_running_stats=True)
[2024-06-08 22:04:25]     (2): ReLU()
[2024-06-08 22:04:25]     (3): MaxPool2d(kernel_size=2, stride=2, padding=0, dilation=1, ceil_mode=False)
[2024-06-08 22:04:25]   )
[2024-06-08 22:04:25]   (conv_block3): Sequential(
[2024-06-08 22:04:25]     (0): Conv2d(32, 64, kernel_size=(3, 3), stride=(1, 1), padding=(1, 1))
[2024-06-08 22:04:25]     (1): BatchNorm2d(64, eps=1e-05, momentum=0.1, affine=True, track_running_stats=True)
[2024-06-08 22:04:25]     (2): ReLU()
[2024-06-08 22:04:25]     (3): MaxPool2d(kernel_size=2, stride=2, padding=0, dilation=1, ceil_mode=False)
[2024-06-08 22:04:25]   )
[2024-06-08 22:04:25]   (conv_block4): Sequential(
[2024-06-08 22:04:25]     (0): Conv2d(64, 128, kernel_size=(3, 3), stride=(1, 1), padding=(1, 1))
[2024-06-08 22:04:25]     (1): BatchNorm2d(128, eps=1e-05, momentum=0.1, affine=True, track_running_stats=True)
[2024-06-08 22:04:25]     (2): ReLU()
[2024-06-08 22:04:25]     (3): MaxPool2d(kernel_size=2, stride=2, padding=0, dilation=1, ceil_mode=False)
[2024-06-08 22:04:25]   )
[2024-06-08 22:04:25]   (conv_block5): Sequential(
[2024-06-08 22:04:25]     (0): Conv2d(128, 128, kernel_size=(3, 3), stride=(1, 1), padding=(1, 1))
[2024-06-08 22:04:25]     (1): BatchNorm2d(128, eps=1e-05, momentum=0.1, affine=True, track_running_stats=True)
[2024-06-08 22:04:25]     (2): ReLU()
[2024-06-08 22:04:25]     (3): MaxPool2d(kernel_size=2, stride=2, padding=0, dilation=1, ceil_mode=False)
[2024-06-08 22:04:25]   )
[2024-06-08 22:04:25]   (biGRU): GRU(256, 256, batch_first=True, bidirectional=True)
[2024-06-08 22:04:25]   (fc): Linear(in_features=512, out_features=10, bias=True)
[2024-06-08 22:04:25] )
  0%|          | 0/23 [00:00<?, ?batch/s]  4%|▍         | 1/23 [00:01<00:39,  1.78s/batch] 22%|██▏       | 5/23 [00:01<00:05,  3.45batch/s] 39%|███▉      | 9/23 [00:02<00:02,  6.83batch/s] 57%|█████▋    | 13/23 [00:02<00:00, 10.58batch/s] 74%|███████▍  | 17/23 [00:02<00:00, 14.52batch/s] 91%|█████████▏| 21/23 [00:02<00:00,
…
