…
[2024-06-08 18:55:09]   (0): time_shift()
[2024-06-08 18:55:09] )
[2024-06-08 18:55:10] AdamW (
[2024-06-08 18:55:10] Parameter Group 0
[2024-06-08 18:55:10]     amsgrad: False
[2024-06-08 18:55:10]     betas: (0.9, 0.999)
[2024-06-08 18:55:10]     capturable: False
[2024-06-08 18:55:10]     differentiable: False
[2024-06-08 18:55:10]     eps: 1e-08
[2024-06-08 18:55:10]     foreach: None
[2024-06-08 18:55:10]     fused: None
[2024-06-08 18:55:10]     lr: 0.001
[2024-06-08 18:55:10]     maximize: False
[2024-06-08 18:55:10]     weight_decay: 0.01
[2024-06-08 18:55:10] )
[2024-06-08 18:55:10] Crnn(
[2024-06-08 18:55:10]   (batch_norm): BatchNorm1d(64, eps=1e-05, momentum=0.1, affine=True, track_running_stats=True)
[2024-06-08 18:55:10]   (conv_block1): Sequential(
[2024-06-08 18:55:10]     (0): Conv2d(1, 16, kernel_size=(3, 3), stride=(1, 1), padding=(1, 1))
[2024-06-08 18:55:10]     (1): BatchNorm2d(16, eps=1e-05, momentum=0.1, affine=True, track_running_stats=True)
[2024-06-08 18:55:10]     (2): ReLU()
[2024-06-08 18:55:10]     (3): MaxPool2d(kernel_size=2, stride=2, padding=0, dilation=1, ceil_mode=False)
[2024-06-08 18:55:10]   )
[2024-06-08 18:55:10]   (conv_block2): Sequential(
[2024-06-08 18:55:10]     (0): Conv2d(16, 32, kernel_size=(3, 3), stride=(1, 1), padding=(1, 1))
[2024-06-08 18:55:10]     (1): BatchNorm2d(32, eps=1e-05, momentum=0.1, affine=True, track_running_stats=True)
[2024-06-08 18:55:10]     (2): ReLU()
[2024-06-08 18:55:10]     (3): MaxPool2d(kernel_size=2, stride=2, padding=0, dilation=1, ceil_mode=False)
[2024-06-08 18:55:10]   )
[2024-06-08 18:55:10]   (conv_block3): Sequential(
[2024-06-08 18:55:10]     (0): Conv2d(32, 64, kernel_size=(3, 3), stride=(1, 1), padding=(1, 1))
[2024-06-08 18:55:10]     (1): BatchNorm2d(64, eps=1e-05, momentum=0.1, affine=True, track_running_stats=True)
[2024-06-08 18:55:10]     (2): ReLU()
[2024-06-08 18:55:10]     (3): MaxPool2d(kernel_size=2, stride=2, padding=0, dilation=1, ceil_mode=False)
[2024-06-08 18:55:10]   )
[2024-06-08 18:55:10]   (conv_block4): Sequential(
[2024-06-08 18:55:10]     (0): Conv2d(64, 128, kernel_size=(3, 3), stride=(1, 1), padding=(1, 1))
[2024-06-08 18:55:10]     (1): BatchNorm2d(128, eps=1e-05, momentum=0.1, affine=True, track_running_stats=True)
[2024-06-08 18:55:10]     (2): ReLU()
[2024-06-08 18:55:10]     (3): MaxPool2d(kernel_size=2, stride=2, padding=0, dilation=1, ceil_mode=False)
[2024-06-08 18:55:10]   )
[2024-06-08 18:55:10]   (conv_block5): Sequential(
[2024-06-08 18:55:10]     (0): Conv2d(128, 128, kernel_size=(3, 3), stride=(1, 1), padding=(1, 1))
[2024-06-08 18:55:10]     (1): BatchNorm2d(128, eps=1e-05, momentum=0.1, affine=True, track_running_stats=True)
[2024-06-08 18:55:10]     (2): ReLU()
[2024-06-08 18:55:10]     (3): MaxPool2d(kernel_size=2, stride=2, padding=0, dilation=1, ceil_mode=False)
[2024-06-08 18:55:10]   )
[2024-06-08 18:55:10]   (biGRU): GRU(256, 128, batch_first=True, bidirectional=True)
[2024-06-08 18:55:10]   (fc): Linear(in_features=256, out_features=10, bias=True)
[2024-06-08 18:55:10] )
  0%|          | 0/23 [00:00<?, ?batch/s]  4%|▍         | 1/23 [00:02<01:04,  2.92s/batch]  9%|▊         | 2/23 [00:03<00:30,  1.44s/batch] 13%|█▎        | 3/23 [00:04<00:24,  1.22s/batch] 17%|█▋        | 4/23 [00:04<00:18,  1.04batch/s] 22%|██▏       | 5/23 [00:05<00:14,  1.24batch/s] 26%|██▌       | 6/23 [00:05<00:11,  1
…
