…
[2024-06-08 21:17:36]   (0): freq_mask()
[2024-06-08 21:17:36] )
[2024-06-08 21:17:38] AdamW (
[2024-06-08 21:17:38] Parameter Group 0
[2024-06-08 21:17:38]     amsgrad: False
[2024-06-08 21:17:38]     betas: (0.9, 0.999)
[2024-06-08 21:17:38]     capturable: False
[2024-06-08 21:17:38]     differentiable: False
[2024-06-08 21:17:38]     eps: 1e-08
[2024-06-08 21:17:38]     foreach: None
[2024-06-08 21:17:38]     fused: None
[2024-06-08 21:17:38]     lr: 0.001
[2024-06-08 21:17:38]     maximize: False
[2024-06-08 21:17:38]     weight_decay: 0.01
[2024-06-08 21:17:38] )
[2024-06-08 21:17:38] Crnn(
[2024-06-08 21:17:38]   (batch_norm): BatchNorm1d(64, eps=1e-05, momentum=0.1, affine=True, track_running_stats=True)
[2024-06-08 21:17:38]   (conv_block1): Sequential(
[2024-06-08 21:17:38]     (0): Conv2d(1, 16, kernel_size=(3, 3), stride=(1, 1), padding=(1, 1))
[2024-06-08 21:17:38]     (1): BatchNorm2d(16, eps=1e-05, momentum=0.1, affine=True, track_running_stats=True)
[2024-06-08 21:17:38]     (2): ReLU()
[2024-06-08 21:17:38]     (3): MaxPool2d(kernel_size=2, stride=2, padding=0, dilation=1, ceil_mode=False)
[2024-06-08 21:17:38]   )
[2024-06-08 21:17:38]   (conv_block2): Sequential(
[2024-06-08 21:17:38]     (0): Conv2d(16, 32, kernel_size=(3, 3), stride=(1, 1), padding=(1, 1))
[2024-06-08 21:17:38]     (1): BatchNorm2d(32, eps=1e-05, momentum=0.1, affine=True, track_running_stats=True)
[2024-06-08 21:17:38]     (2): ReLU()
[2024-06-08 21:17:38]     (3): MaxPool2d(kernel_size=2, stride=2, padding=0, dilation=1, ceil_mode=False)
[2024-06-08 21:17:38]   )
[2024-06-08 21:17:38]   (conv_block3): Sequential(
[2024-06-08 21:17:38]     (0): Conv2d(32, 64, kernel_size=(3, 3), stride=(1, 1), padding=(1, 1))
[2024-06-08 21:17:38]     (1): BatchNorm2d(64, eps=1e-05, momentum=0.1, affine=True, track_running_stats=True)
[2024-06-08 21:17:38]     (2): ReLU()
[2024-06-08 21:17:38]     (3): MaxPool2d(kernel_size=2, stride=2, padding=0, dilation=1, ceil_mode=False)
[2024-06-08 21:17:38]   )
[2024-06-08 21:17:38]   (conv_block4): Sequential(
[2024-06-08 21:17:38]     (0): Conv2d(64, 128, kernel_size=(3, 3), stride=(1, 1), padding=(1, 1))
[2024-06-08 21:17:38]     (1): BatchNorm2d(128, eps=1e-05, momentum=0.1, affine=True, track_running_stats=True)
[2024-06-08 21:17:38]     (2): ReLU()
[2024-06-08 21:17:38]     (3): MaxPool2d(kernel_size=2, stride=2, padding=0, dilation=1, ceil_mode=False)
[2024-06-08 21:17:38]   )
[2024-06-08 21:17:38]   (conv_block5): Sequential(
[2024-06-08 21:17:38]     (0): Conv2d(128, 128, kernel_size=(3, 3), stride=(1, 1), padding=(1, 1))
[2024-06-08 21:17:38]     (1): BatchNorm2d(128, eps=1e-05, momentum=0.1, affine=True, track_running_stats=True)
[2024-06-08 21:17:38]     (2): ReLU()
[2024-06-08 21:17:38]     (3): MaxPool2d(kernel_size=2, stride=2, padding=0, dilation=1, ceil_mode=False)
[2024-06-08 21:17:38]   )
[2024-06-08 21:17:38]   (biGRU): GRU(256, 128, batch_first=True, bidirectional=True)
[2024-06-08 21:17:38]   (fc): Linear(in_features=256, out_features=10, bias=True)
[2024-06-08 21:17:38] )
  0%|          | 0/23 [00:00<?, ?batch/s]  4%|▍         | 1/23 [00:00<00:17,  1.24batch/s] 22%|██▏       | 5/23 [00:00<00:02,  6.93batch/s] 39%|███▉      | 9/23 [00:01<00:01, 12.53batch/s] 57%|█████▋    | 13/23 [00:01<00:00, 17.68batch/s] 74%|███████▍  | 17/23 [00:01<00:00, 22.14batch/s] 91%|█████████▏| 21/23 [00:01<00:00,
…
