…
[2024-06-08 18:59:34]   (0): freq_shift()
[2024-06-08 18:59:34] )
[2024-06-08 18:59:42] AdamW (
[2024-06-08 18:59:42] Parameter Group 0
[2024-06-08 18:59:42]     amsgrad: False
[2024-06-08 18:59:42]     betas: (0.9, 0.999)
[2024-06-08 18:59:42]     capturable: False
[2024-06-08 18:59:42]     differentiable: False
[2024-06-08 18:59:42]     eps: 1e-08
[2024-06-08 18:59:42]     foreach: None
[2024-06-08 18:59:42]     fused: None
[2024-06-08 18:59:42]     lr: 0.001
[2024-06-08 18:59:42]     maximize: False
[2024-06-08 18:59:42]     weight_decay: 0.01
[2024-06-08 18:59:42] )
[2024-06-08 18:59:42] Crnn(
[2024-06-08 18:59:42]   (batch_norm): BatchNorm1d(64, eps=1e-05, momentum=0.1, affine=True, track_running_stats=True)
[2024-06-08 18:59:42]   (conv_block1): Sequential(
[2024-06-08 18:59:42]     (0): Conv2d(1, 16, kernel_size=(3, 3), stride=(1, 1), padding=(1, 1))
[2024-06-08 18:59:42]     (1): BatchNorm2d(16, eps=1e-05, momentum=0.1, affine=True, track_running_stats=True)
[2024-06-08 18:59:42]     (2): ReLU()
[2024-06-08 18:59:42]     (3): MaxPool2d(kernel_size=2, stride=2, padding=0, dilation=1, ceil_mode=False)
[2024-06-08 18:59:42]   )
[2024-06-08 18:59:42]   (conv_block2): Sequential(
[2024-06-08 18:59:42]     (0): Conv2d(16, 32, kernel_size=(3, 3), stride=(1, 1), padding=(1, 1))
[2024-06-08 18:59:42]     (1): BatchNorm2d(32, eps=1e-05, momentum=0.1, affine=True, track_running_stats=True)
[2024-06-08 18:59:42]     (2): ReLU()
[2024-06-08 18:59:42]     (3): MaxPool2d(kernel_size=2, stride=2, padding=0, dilation=1, ceil_mode=False)
[2024-06-08 18:59:42]   )
[2024-06-08 18:59:42]   (conv_block3): Sequential(
[2024-06-08 18:59:42]     (0): Conv2d(32, 64, kernel_size=(3, 3), stride=(1, 1), padding=(1, 1))
[2024-06-08 18:59:42]     (1): BatchNorm2d(64, eps=1e-05, momentum=0.1, affine=True, track_running_stats=True)
[2024-06-08 18:59:42]     (2): ReLU()
[2024-06-08 18:59:42]     (3): MaxPool2d(kernel_size=2, stride=2, padding=0, dilation=1, ceil_mode=False)
[2024-06-08 18:59:42]   )
[2024-06-08 18:59:42]   (conv_block4): Sequential(
[2024-06-08 18:59:42]     (0): Conv2d(64, 128, kernel_size=(3, 3), stride=(1, 1), padding=(1, 1))
[2024-06-08 18:59:42]     (1): BatchNorm2d(128, eps=1e-05, momentum=0.1, affine=True, track_running_stats=True)
[2024-06-08 18:59:42]     (2): ReLU()
[2024-06-08 18:59:42]     (3): MaxPool2d(kernel_size=2, stride=2, padding=0, dilation=1, ceil_mode=False)
[2024-06-08 18:59:42]   )
[2024-06-08 18:59:42]   (conv_block5): Sequential(
[2024-06-08 18:59:42]     (0): Conv2d(128, 128, kernel_size=(3, 3), stride=(1, 1), padding=(1, 1))
[2024-06-08 18:59:42]     (1): BatchNorm2d(128, eps=1e-05, momentum=0.1, affine=True, track_running_stats=True)
[2024-06-08 18:59:42]     (2): ReLU()
[2024-06-08 18:59:42]     (3): MaxPool2d(kernel_size=2, stride=2, padding=0, dilation=1, ceil_mode=False)
[2024-06-08 18:59:42]   )
[2024-06-08 18:59:42]   (biGRU): GRU(256, 128, batch_first=True, bidirectional=True)
[2024-06-08 18:59:42]   (fc): Linear(in_features=256, out_features=10, bias=True)
[2024-06-08 18:59:42] )
  0%|          | 0/23 [00:00<?, ?batch/s]  4%|▍         | 1/23 [00:04<01:41,  4.61s/batch] 17%|█▋        | 4/23 [00:04<00:17,  1.10batch/s] 26%|██▌       | 6/23 [00:04<00:09,  1.82batch/s] 35%|███▍      | 8/23 [00:05<00:05,  2.72batch/s] 43%|████▎     | 10/23 [00:05<00:03,  3.79batch/s] 52%|█████▏    | 12/23 [00:05<00:02, 
…
