…
[2024-06-08 21:57:28]   (0): add_noise()
[2024-06-08 21:57:28] )
[2024-06-08 21:57:30] AdamW (
[2024-06-08 21:57:30] Parameter Group 0
[2024-06-08 21:57:30]     amsgrad: False
[2024-06-08 21:57:30]     betas: (0.9, 0.999)
[2024-06-08 21:57:30]     capturable: False
[2024-06-08 21:57:30]     differentiable: False
[2024-06-08 21:57:30]     eps: 1e-08
[2024-06-08 21:57:30]     foreach: None
[2024-06-08 21:57:30]     fused: None
[2024-06-08 21:57:30]     lr: 0.001
[2024-06-08 21:57:30]     maximize: False
[2024-06-08 21:57:30]     weight_decay: 0.01
[2024-06-08 21:57:30] )
[2024-06-08 21:57:30] Crnn(
[2024-06-08 21:57:30]   (batch_norm): BatchNorm1d(64, eps=1e-05, momentum=0.1, affine=True, track_running_stats=True)
[2024-06-08 21:57:30]   (conv_block1): Sequential(
[2024-06-08 21:57:30]     (0): Conv2d(1, 16, kernel_size=(3, 3), stride=(1, 1), padding=(1, 1))
[2024-06-08 21:57:30]     (1): BatchNorm2d(16, eps=1e-05, momentum=0.1, affine=True, track_running_stats=True)
[2024-06-08 21:57:30]     (2): ReLU()
[2024-06-08 21:57:30]     (3): MaxPool2d(kernel_size=2, stride=2, padding=0, dilation=1, ceil_mode=False)
[2024-06-08 21:57:30]   )
[2024-06-08 21:57:30]   (conv_block2): Sequential(
[2024-06-08 21:57:30]     (0): Conv2d(16, 32, kernel_size=(3, 3), stride=(1, 1), padding=(1, 1))
[2024-06-08 21:57:30]     (1): BatchNorm2d(32, eps=1e-05, momentum=0.1, affine=True, track_running_stats=True)
[2024-06-08 21:57:30]     (2): ReLU()
[2024-06-08 21:57:30]     (3): MaxPool2d(kernel_size=2, stride=2, padding=0, dilation=1, ceil_mode=False)
[2024-06-08 21:57:30]   )
[2024-06-08 21:57:30]   (conv_block3): Sequential(
[2024-06-08 21:57:30]     (0): Conv2d(32, 64, kernel_size=(3, 3), stride=(1, 1), padding=(1, 1))
[2024-06-08 21:57:30]     (1): BatchNorm2d(64, eps=1e-05, momentum=0.1, affine=True, track_running_stats=True)
[2024-06-08 21:57:30]     (2): ReLU()
[2024-06-08 21:57:30]     (3): MaxPool2d(kernel_size=2, stride=2, padding=0, dilation=1, ceil_mode=False)
[2024-06-08 21:57:30]   )
[2024-06-08 21:57:30]   (conv_block4): Sequential(
[2024-06-08 21:57:30]     (0): Conv2d(64, 128, kernel_size=(3, 3), stride=(1, 1), padding=(1, 1))
[2024-06-08 21:57:30]     (1): BatchNorm2d(128, eps=1e-05, momentum=0.1, affine=True, track_running_stats=True)
[2024-06-08 21:57:30]     (2): ReLU()
[2024-06-08 21:57:30]     (3): MaxPool2d(kernel_size=2, stride=2, padding=0, dilation=1, ceil_mode=False)
[2024-06-08 21:57:30]   )
[2024-06-08 21:57:30]   (conv_block5): Sequential(
[2024-06-08 21:57:30]     (0): Conv2d(128, 128, kernel_size=(3, 3), stride=(1, 1), padding=(1, 1))
[2024-06-08 21:57:30]     (1): BatchNorm2d(128, eps=1e-05, momentum=0.1, affine=True, track_running_stats=True)
[2024-06-08 21:57:30]     (2): ReLU()
[2024-06-08 21:57:30]     (3): MaxPool2d(kernel_size=2, stride=2, padding=0, dilation=1, ceil_mode=False)
[2024-06-08 21:57:30]   )
[2024-06-08 21:57:30]   (biGRU): GRU(256, 64, batch_first=True, bidirectional=True)
[2024-06-08 21:57:30]   (fc): Linear(in_features=128, out_features=10, bias=True)
[2024-06-08 21:57:30] )
  0%|          | 0/23 [00:00<?, ?batch/s]  4%|▍         | 1/23 [00:01<00:27,  1.25s/batch] 17%|█▋        | 4/23 [00:01<00:05,  3.79batch/s] 26%|██▌       | 6/23 [00:01<00:03,  5.64batch/s] 35%|███▍      | 8/23 [00:01<00:02,  7.46batch/s] 43%|████▎     | 10/23 [00:01<00:01,  9.13batch/s] 52%|█████▏    | 12/23 [00:01<00:01, 
…
