…
[2024-06-08 19:06:30]   (0): add_noise()
[2024-06-08 19:06:30] )
[2024-06-08 19:06:32] AdamW (
[2024-06-08 19:06:32] Parameter Group 0
[2024-06-08 19:06:32]     amsgrad: False
[2024-06-08 19:06:32]     betas: (0.9, 0.999)
[2024-06-08 19:06:32]     capturable: False
[2024-06-08 19:06:32]     differentiable: False
[2024-06-08 19:06:32]     eps: 1e-08
[2024-06-08 19:06:32]     foreach: None
[2024-06-08 19:06:32]     fused: None
[2024-06-08 19:06:32]     lr: 0.001
[2024-06-08 19:06:32]     maximize: False
[2024-06-08 19:06:32]     weight_decay: 0.01
[2024-06-08 19:06:32] )
[2024-06-08 19:06:32] Crnn(
[2024-06-08 19:06:32]   (batch_norm): BatchNorm1d(64, eps=1e-05, momentum=0.1, affine=True, track_running_stats=True)
[2024-06-08 19:06:32]   (conv_block1): Sequential(
[2024-06-08 19:06:32]     (0): Conv2d(1, 16, kernel_size=(3, 3), stride=(1, 1), padding=(1, 1))
[2024-06-08 19:06:32]     (1): BatchNorm2d(16, eps=1e-05, momentum=0.1, affine=True, track_running_stats=True)
[2024-06-08 19:06:32]     (2): ReLU()
[2024-06-08 19:06:32]     (3): MaxPool2d(kernel_size=2, stride=2, padding=0, dilation=1, ceil_mode=False)
[2024-06-08 19:06:32]   )
[2024-06-08 19:06:32]   (conv_block2): Sequential(
[2024-06-08 19:06:32]     (0): Conv2d(16, 32, kernel_size=(3, 3), stride=(1, 1), padding=(1, 1))
[2024-06-08 19:06:32]     (1): BatchNorm2d(32, eps=1e-05, momentum=0.1, affine=True, track_running_stats=True)
[2024-06-08 19:06:32]     (2): ReLU()
[2024-06-08 19:06:32]     (3): MaxPool2d(kernel_size=2, stride=2, padding=0, dilation=1, ceil_mode=False)
[2024-06-08 19:06:32]   )
[2024-06-08 19:06:32]   (conv_block3): Sequential(
[2024-06-08 19:06:32]     (0): Conv2d(32, 64, kernel_size=(3, 3), stride=(1, 1), padding=(1, 1))
[2024-06-08 19:06:32]     (1): BatchNorm2d(64, eps=1e-05, momentum=0.1, affine=True, track_running_stats=True)
[2024-06-08 19:06:32]     (2): ReLU()
[2024-06-08 19:06:32]     (3): MaxPool2d(kernel_size=2, stride=2, padding=0, dilation=1, ceil_mode=False)
[2024-06-08 19:06:32]   )
[2024-06-08 19:06:32]   (conv_block4): Sequential(
[2024-06-08 19:06:32]     (0): Conv2d(64, 128, kernel_size=(3, 3), stride=(1, 1), padding=(1, 1))
[2024-06-08 19:06:32]     (1): BatchNorm2d(128, eps=1e-05, momentum=0.1, affine=True, track_running_stats=True)
[2024-06-08 19:06:32]     (2): ReLU()
[2024-06-08 19:06:32]     (3): MaxPool2d(kernel_size=2, stride=2, padding=0, dilation=1, ceil_mode=False)
[2024-06-08 19:06:32]   )
[2024-06-08 19:06:32]   (conv_block5): Sequential(
[2024-06-08 19:06:32]     (0): Conv2d(128, 128, kernel_size=(3, 3), stride=(1, 1), padding=(1, 1))
[2024-06-08 19:06:32]     (1): BatchNorm2d(128, eps=1e-05, momentum=0.1, affine=True, track_running_stats=True)
[2024-06-08 19:06:32]     (2): ReLU()
[2024-06-08 19:06:32]     (3): MaxPool2d(kernel_size=2, stride=2, padding=0, dilation=1, ceil_mode=False)
[2024-06-08 19:06:32]   )
[2024-06-08 19:06:32]   (biGRU): GRU(256, 128, batch_first=True, bidirectional=True)
[2024-06-08 19:06:32]   (fc): Linear(in_features=256, out_features=10, bias=True)
[2024-06-08 19:06:32] )
  0%|          | 0/23 [00:00<?, ?batch/s]  4%|▍         | 1/23 [00:00<00:19,  1.15batch/s] 17%|█▋        | 4/23 [00:00<00:03,  5.17batch/s] 26%|██▌       | 6/23 [00:01<00:02,  7.21batch/s] 35%|███▍      | 8/23 [00:01<00:01,  8.97batch/s] 43%|████▎     | 10/23 [00:01<00:01, 10.34batch/s] 52%|█████▏    | 12/23 [00:01<00:00, 
…
