…
[2024-06-08 22:02:04] Sequential()
[2024-06-08 22:02:07] AdamW (
[2024-06-08 22:02:07] Parameter Group 0
[2024-06-08 22:02:07]     amsgrad: False
[2024-06-08 22:02:07]     betas: (0.9, 0.999)
[2024-06-08 22:02:07]     capturable: False
[2024-06-08 22:02:07]     differentiable: False
[2024-06-08 22:02:07]     eps: 1e-08
[2024-06-08 22:02:07]     foreach: None
[2024-06-08 22:02:07]     fused: None
[2024-06-08 22:02:07]     lr: 0.001
[2024-06-08 22:02:07]     maximize: False
[2024-06-08 22:02:07]     weight_decay: 0.01
[2024-06-08 22:02:07] )
[2024-06-08 22:02:07] Crnn(
[2024-06-08 22:02:07]   (batch_norm): BatchNorm1d(64, eps=1e-05, momentum=0.1, affine=True, track_running_stats=True)
[2024-06-08 22:02:07]   (conv_block1): Sequential(
[2024-06-08 22:02:07]     (0): Conv2d(1, 16, kernel_size=(3, 3), stride=(1, 1), padding=(1, 1))
[2024-06-08 22:02:07]     (1): BatchNorm2d(16, eps=1e-05, momentum=0.1, affine=True, track_running_stats=True)
[2024-06-08 22:02:07]     (2): ReLU()
[2024-06-08 22:02:07]     (3): MaxPool2d(kernel_size=2, stride=2, padding=0, dilation=1, ceil_mode=False)
[2024-06-08 22:02:07]   )
[2024-06-08 22:02:07]   (conv_block2): Sequential(
[2024-06-08 22:02:07]     (0): Conv2d(16, 32, kernel_size=(3, 3), stride=(1, 1), padding=(1, 1))
[2024-06-08 22:02:07]     (1): BatchNorm2d(32, eps=1e-05, momentum=0.1, affine=True, track_running_stats=True)
[2024-06-08 22:02:07]     (2): ReLU()
[2024-06-08 22:02:07]     (3): MaxPool2d(kernel_size=2, stride=2, padding=0, dilation=1, ceil_mode=False)
[2024-06-08 22:02:07]   )
[2024-06-08 22:02:07]   (conv_block3): Sequential(
[2024-06-08 22:02:07]     (0): Conv2d(32, 64, kernel_size=(3, 3), stride=(1, 1), padding=(1, 1))
[2024-06-08 22:02:07]     (1): BatchNorm2d(64, eps=1e-05, momentum=0.1, affine=True, track_running_stats=True)
[2024-06-08 22:02:07]     (2): ReLU()
[2024-06-08 22:02:07]     (3): MaxPool2d(kernel_size=2, stride=2, padding=0, dilation=1, ceil_mode=False)
[2024-06-08 22:02:07]   )
[2024-06-08 22:02:07]   (conv_block4): Sequential(
[2024-06-08 22:02:07]     (0): Conv2d(64, 128, kernel_size=(3, 3), stride=(1, 1), padding=(1, 1))
[2024-06-08 22:02:07]     (1): BatchNorm2d(128, eps=1e-05, momentum=0.1, affine=True, track_running_stats=True)
[2024-06-08 22:02:07]     (2): ReLU()
[2024-06-08 22:02:07]     (3): MaxPool2d(kernel_size=2, stride=2, padding=0, dilation=1, ceil_mode=False)
[2024-06-08 22:02:07]   )
[2024-06-08 22:02:07]   (conv_block5): Sequential(
[2024-06-08 22:02:07]     (0): Conv2d(128, 128, kernel_size=(3, 3), stride=(1, 1), padding=(1, 1))
[2024-06-08 22:02:07]     (1): BatchNorm2d(128, eps=1e-05, momentum=0.1, affine=True, track_running_stats=True)
[2024-06-08 22:02:07]     (2): ReLU()
[2024-06-08 22:02:07]     (3): MaxPool2d(kernel_size=2, stride=2, padding=0, dilation=1, ceil_mode=False)
[2024-06-08 22:02:07]   )
[2024-06-08 22:02:07]   (biGRU): GRU(256, 64, batch_first=True, bidirectional=True)
[2024-06-08 22:02:07]   (fc): Linear(in_features=128, out_features=10, bias=True)
[2024-06-08 22:02:07] )
  0%|          | 0/23 [00:00<?, ?batch/s]  4%|▍         | 1/23 [00:02<00:55,  2.54s/batch]  9%|▊         | 2/23 [00:02<00:26,  1.26s/batch] 13%|█▎        | 3/23 [00:03<00:20,  1.01s/batch] 17%|█▋        | 4/23 [00:04<00:16,  1.16batch/s] 22%|██▏       | 5/23 [00:04<00:13,  1.36batch/s] 26%|██▌       | 6/23 [00:05<00:10,  1
…
